…
://localhost:8080/"},"id":"3Dd6HfzJe4ES","outputId":"9f561784-9b18-49ca-8366-0ca9ec160293","executionInfo":{"status":"ok","timestamp":1688222797216,"user_tz":-330,"elapsed":1511,"user":{"displayName":"SHAIK MOHAMMAD WASEEM AKRAM 20BCD7141","userId":"05198691681285715221"}}},"outputs":[{"output_type":"stream","name":"stdout","text":["Model: \"sequential\"\n","_________________________________________________________________\n"," Layer (type)                Output Shape              Param #   \n","=================================================================\n"," conv2d (Conv2D)             (None, 48, 48, 64)        640       \n","                                                                 \n"," conv2d_1 (Conv2D)           (None, 48, 48, 64)        36928     \n","                                                                 \n"," batch_normalization (BatchN  (None, 48, 48, 64)       256       \n"," ormalization)                                                   \n","                                                                 \n"," activation (Activation)     (None, 48, 48, 64)        0         \n","                                                                 \n"," max_pooling2d (MaxPooling2D  (None, 24, 24, 64)       0         \n"," )                                                               \n","                                                                 \n"," dropout (Dropout)           (None, 24, 24, 64)        0         \n","                                                                 \n"," conv2d_2 (Conv2D)           (None, 24, 24, 128)       73856     \n","                                                                 \n"," conv2d_3 (Conv2D)           (None, 24, 24, 128)       147584    \n","                                                                 \n"," batch_normalization_1 (Batc  (None, 24, 24, 128)      512       \n"," hNormalization)                                                 \n","                                                                 \n"," activation_1 (Activation)   (None, 24, 24, 128)       0         \n","                                                                 \n"," max_pooling2d_1 (MaxPooling  (None, 12, 12, 128)      0         \n"," 2D)                                                             \n","                                                                 \n"," dropout_1 (Dropout)         (None, 12, 12, 128)       0         \n","                                                                 \n"," conv2d_4 (Conv2D)           (None, 12, 12, 256)       33024     \n","                                                                 \n"," conv2d_5 (Conv2D)           (None, 6, 6, 256)         65792     \n","                                                                 \n"," batch_normalization_2 (Batc  (None, 6, 6, 256)        1024      \n"," hNormalization)                                                 \n","                                                                 \n"," activation_2 (Activation)   (None, 6, 6, 256)         0         \n","                                                                 \n"," max_pooling2d_2 (MaxPooling  (None, 3, 3, 256)        0         \n"," 2D)                                                             \n","                                                                 \n"," dropout_2 (Dropout)         (None, 3, 3, 256)         0         \n","                                                                 \n"," flatten (Flatten)           (None, 2304)              0         \n","                                                                 \n"," dense (Dense)               (None, 128)               295040    \n","                                                                 \n"," batch_normalization_3 (Batc  (None, 128)              512       \n"," hNormalization)                                                 \n","                                                                 \n"," dense_1 (Dense)             (None, 128)               16512     \n","                                                                 \n"," batch_normalization_4 (Batc  (None, 128)              512       \n"," hNormalization)                                                 \n","                                                                 \n"," dropout_3 (Dropout)         (None, 128)               0         \n","                                                                 \n"," dense_2 (Dense)             (None, 7)                 903       \n","                                                                 \n","=================================================================\n","Total params: 673,095\n","Trainable params: 671,687\n","Non-trainable params: 1,408\n","_________________________________________________________________\n"]}],"source":["#Build the model\n","model = Sequential()\n","#Module1 conv<\n","model.add(Co
…
